CNN/29epoch.ckpt (torch, 203377 bytes, 43 tensors)

layer1.0.weight f4 [8, 3, 3, 3]
000000 5f 1e a2 bf 14 2b 09 bf f2 cf 87 3d 46 86 48 bf
       -1.2665519 -0.53581357 0.06631459 -0.78329885
000010 1c 20 3f bf 5b 02 ec be 7a ee 90 3f 08 14 00 3f
       -0.7465837 -0.46095547 1.1322777 0.50030565
000020 f6 9b a8 be 3c c2 a2 bf 07 27 01 bf 45 76 2a 3e
       -0.3293149 -1.2715526 -0.50450176 0.16646679
000030 84 6c 78 bf c6 1c 4b bf 57 4f 2a bf 3c 8d 82 3f
       -0.9704058 -0.7934078 -0.66527313 1.0199351
000040 7d 95 ef 3e 40 59 64 be e1 1d ab bf c5 4f 22 bf
       0.46793738 -0.22299671 -1.3368493 -0.6340297
000050 e4 49 95 3d 33 7f 78 bf b0 ff 38 bf 88 7c db be
       0.07289484 -0.9706909 -0.7226515 -0.42868447
000060 0f 87 52 3f d0 b5 46 3f eb ed 92 be fc ff 1b bf
       0.82237333 0.77621174 -0.28697142 -0.60937476
000070 85 7b f1 be bb 06 90 bf 38 9e af bc 61 5b b7 3f
       -0.4716455 -1.1252054 -0.02143775 1.4324762
000080 02 5f 4c bd f2 f5 cd 3f ad 8b e2 3f 27 e8 7f bf
       -0.049895294 1.6090682 1.7698876 -0.9996361
000090 51 61 1f bf b8 f7 d6 be 1d c5 89 bf 1d 50 d5 bd
       -0.6225787 -0.4198587 -1.0763279 -0.10415671
0000a0 29 95 b5 3f c5 41 87 be 99 2c b5 3f 54 28 00 40
       1.4186145 -0.26417366 1.4154235 2.0024614
0000b0 1c 27 51 bf 0f 52 23 bf 9a e2 71 be 2d 1c 62 bf
       -0.817003 -0.63797086 -0.23621598 -0.8832424
0000c0 e3 5b 69 bd f6 8f b9 3f eb d9 8b bd 80 3e af 3f
       -0.056972396 1.4497058 -0.06828674 1.3690948
0000d0 62 61 00 40 b8 7a 75 bf 91 d7 71 3f 92 44 10 bf
       2.0059438 -0.9589038 0.94469553 -0.5635463
0000e0 08 8c dc be d1 08 a1 be de f5 a8 bf c7 94 5c bf
       -0.43075585 -0.3145204 -1.3200033 -0.86164516
0000f0 54 35 74 3f 2d 59 13 3f 64 41 96 3b ef 43 2c 3f
       0.9539387 0.57557946 0.004585432 0.6729116
000100 30 19 8d be 3f 32 df be b8 6d ad be ea 0a 9f bf
       -0.2755828 -0.43593022 -0.3387277 -1.2425206
000110 d7 d8 5d bf d5 da 9a 3f 74 a0 34 3f 83 72 0a 3e
       -0.86658996 1.2098032 0.7055733 0.13520245
000120 10 9a 38 3f 92 9c f4 be 65 31 e2 be 91 4b e5 be
       0.7211008 -0.47775704 -0.4417831 -0.44784215
000130 05 0d a4 bf db e1 7d bf 1d e1 81 3f 9a 99 4b 3f
       -1.2816473 -0.99172753 1.0146824 0.7953125
000140 a6 4a f8 3d 90 cb 43 3f 51 c3 9a 3e c0 e2 84 be
       0.12123613 0.76482487 0.3022714 -0.25954247
000150 18 98 47 3f ce ad b4 3d d1 4c 0c bf 12 45 01 3f
       0.7796645 0.08822213 -0.5480471 0.5049602
000160 cd 27 87 bd 15 b0 db be 73 f0 79 3f 90 84 c6 3d
       -0.06599388 -0.42907777 0.9763252 0.09693253
000170 a9 98 67 be 7d f5 7d 3f f6 c2 27 be 25 d7 b6 be
       -0.22616829 0.9920271 -0.16382965 -0.35711017
000180 63 3d d4 3e b8 8f 74 bd c2 d1 09 bf 01 81 56 3f
       0.41453084 -0.059707373 -0.5383569 0.83790594
000190 61 b7 8b 3e e6 cc 20 be 0d 7a 43 3f 75 0c da bc
       0.27288345 -0.15703163 0.7635811 -0.026617268
0001a0 4e 8b 8c be 69 1f 0b 3f 72 02 8d be 02 f2 92 be
       -0.2745003 0.54344803 -0.27540928 -0.28700262
0001b0 55 34 71 3c 92 45 0a 3f ad 75 8d 3e 7e 12 a3 be
       0.01472195 0.54012406 0.27628842 -0.31850046
0001c0 a7 31 62 3e 07 77 91 3d 32 f4 bb be 19 69 f9 3d
       0.22089253 0.07102781 -0.36709744 0.12178249
0001d0 01 11 2a 3f 25 29 31 3e 09 eb 16 3f 4e ce 2b 3e
       0.66432196 0.17300852 0.58952385 0.16777918
0001e0 95 9f 4e be 46 07 07 bd 55 65 b2 3d e5 84 da be
       -0.20178063 -0.03296592 0.08710734 -0.42679515
0001f0 35 bb f1 3d 44 1e 2f 3f 2e b9 8f bd 2a c5 10 3f
       0.11803285 0.68405557 -0.07017742 0.5655085
000200 4d c0 62 3e 26 0d 48 be c5 fe 98 bd b7 fd 16 3e
       0.2214367 -0.19536266 -0.074704684 0.14745222
000210 ef 93 a4 be b0 8f b4 3e 75 1c e3 3e f9 26 1a 3f
       -0.32144114 0.35265875 0.44357648 0.6021572
000220 7c ec da 3e e0 57 29 3e 31 f2 e5 be b5 b8 87 be
       0.42758548 0.16537428 -0.4491134 -0.26508108
000230 bf d4 8d be d6 2e 9d bf 9a 7f b2 bf ef b8 3a bf
       -0.27701375 -1.2279918 -1.3945191 -0.72938436
000240 21 76 28 3f 11 57 95 3e aa 6d 06 3e d2 66 c4 be
       0.6580525 0.2916799 0.13127771 -0.38359696
000250 59 81 96 be 08 47 d9 be 77 9a 9e bf f1 ff 98 bf
       -0.2939556 -0.42437005 -1.2390889 -1.1953107
000260 ed cd 2a bf 21 cb ef 3e 59 ab 8c 3e 4d 2b ee 3d
       -0.6672047 0.46834663 0.27474478 0.11629353
000270 a2 ac a7 be 45 c1 83 be 25 a5 80 be 56 f5 60 bf
       -0.32748896 -0.2573339 -0.25125995 -0.8787435
000280 7c a6 96 bf 63 b3 6f bf 8b ce 1a c0 5a 7e 46 c0
       -1.1769557 -0.936331 -2.4188564 -3.101462
000290 c6 a1 21 c0 76 17 22 bf 6f 30 76 bf b8 62 a7 bf
       -2.5254989 -0.6331705 -0.96167654 -1.3077002
0002a0 20 24 18 3f 39 32 74 bb 72 ce c1 be 4d b0 30 c0
       0.5943012 -0.003726138 -0.37852818 -2.7607605
0002b0 2e 74 45 c0 90 43 2c c0 e2 16 34 bf e7 4a 96 bf
       -3.085216 -2.6916237 -0.70347416 -1.1741608
0002c0 63 20 bf bf 26 16 0e 3f 00 5d 34 3e 41 d5 75 be
       -1.4931759 0.55502546 0.17613602 -0.24007131
0002d0 9a 77 2b c0 38 42 43 c0 e4 bb 28 c0 8d 4b 29 bf
       -2.679175 -3.0509167 -2.636468 -0.66130906
0002e0 a9 a2 88 bf 2c 1c a5 bf f3 1f 45 3f 8d 3f 48 3e
       -1.067464 -1.2899222 0.77001876 0.19555493
0002f0 25 d6 57 be cb 2d c9 bd 2f 8d 0b 3f b0 51 21 40
       -0.21077783 -0.098231874 0.54512304 2.5206108
000300 d0 70 f4 bd 2d 9d 32 3f 8d eb 24 40 3a 67 03 bf
       -0.1193558 0.6977108 2.5768769 -0.51329386
000310 55 98 20 3f 63 5c e7 3f 8c de c8 bd 97 26 19 3f
       0.6273244 1.8075069 -0.098080724 0.5982451
000320 3e c2 1a 40 9d 50 ea bd 00 c1 61 3f f1 9e 1d 40
       2.4181056 -0.11441157 0.8818512 2.462826
000330 59 da 24 bf e9 23 1c 3f a8 c7 01 40 9c 8b 11 3e
       -0.6439567 0.60992295 2.027811 0.14213413
000340 bf cc 4a 3f 45 d1 1d 40 88 7c 5a 3b 8f 79 7c 3f
       0.7921867 2.4658978 0.0033338387 0.98622984
000350 78 30 2e 40 c1 22 02 bf 57 b3 1f 3f cf b6 04 40
       2.7217083 -0.5083428 0.62383026 2.0736578

layer1.0.bias f4 [8]
000000 a0 1f 30 3d b2 8a 11 bc 63 8f c2 3d 09 58 26 be
       0.04299891 -0.008883165 0.09500005 -0.1624452
000010 43 08 11 3e 31 88 0f be 4d ed 35 3d 7c 1f 1d 3e
       0.14163308 -0.14016797 0.04441576 0.15344042

layer1.1.weight f4 [8]
000000 99 f1 e2 3f 29 51 08 40 74 5a ce 3f c5 00 8e 3f
       1.772998 2.1299536 1.6121354 1.1093985
000010 d6 13 7c 3f 2c b8 08 40 07 08 80 3d a9 8b 29 3f
       0.9846777 2.136241 0.06251531 0.6622873

layer1.1.bias f4 [8]
000000 63 be 40 3f f5 56 f5 be ac c0 4b 3e d9 30 d4 be
       0.7529051 -0.47917905 0.19897717 -0.41443518
000010 a4 66 90 be 87 7b 81 3f 08 99 cf be 45 97 c1 3f
       -0.2820331 1.0115823 -0.4054644 1.5124289

layer1.1.running_mean f4 [8]
000000 36 07 7b c1 05 c1 26 41 a9 a7 9f c0 a2 60 e1 40
       -15.6892605 10.422124 -4.9892163 7.043046
000010 70 1b dc 40 f2 30 92 c1 5a 8e 80 c2 7c b0 49 42
       6.8783493 -18.2739 -64.27803 50.422348

layer1.1.running_var f4 [8]
000000 5c 82 a6 42 c3 26 99 42 f3 23 df 41 8f a8 05 42
       83.25461 76.57571 27.892553 33.414608
000010 85 c1 86 41 f8 f8 e8 42 23 ba 9d 44 2b 4a 47 44
       16.844492 116.48627 1261.8168 797.1589

layer2.0.weight f4 [8, 8, 3, 3]
000000 9c cd 80 be b7 9c 8d 3f 79 91 c3 3f 77 11 8e bf
       -0.25156868 1.106345 1.527877 -1.109908
000010 f9 74 19 3e 38 22 43 3d 67 40 13 3f 5e ba dc 3e
       0.14986028 0.047640055 0.57520145 0.43110937
000020 73 50 82 3e c4 b3 b6 3e cd 35 96 be a1 5f 41 bf
       0.25452003 0.35684025 -0.29337922 -0.75536543
000030 b2 e8 24 3e 81 b7 25 be 91 f4 67 be fc f5 c3 bd
       0.16104391 -0.16183282 -0.22651888 -0.09568402
000040 6e 12 9d 3d a6 c6 01 3f 55 96 65 3e 93 8e 90 bd
       0.07669531 0.5069374 0.22420628 -0.07058444
000050 85 82 b7 be 12 08 fb bd 84 8c 9c 3e 8e 85 b9 3e
       -0.35841766 -0.12257399 0.30575955 0.36234707
000060 59 b6 3d be 24 d9 e2 3e 5d 48 0f 3f 24 9f 7b bd
       -0.18526591 0.4430629 0.5596979 -0.061431065
000070 ec bb 8a 3e f8 5c ab 3e 8e f3 cd be 53 c7 cc be
       0.27096498 0.33469367 -0.4022488 -0.39995822
000080 45 6f 54 bd cd fb 55 3e 0d d8 68 3d 8f b1 0e bd
       -0.051863927 0.20896836 0.056846667 -0.0348373
000090 14 47 87 3e 36 54 10 3e 34 1b 23 be e4 ae 9d be
       0.26421416 0.14094624 -0.15928346 -0.30797493
0000a0 40 61 f5 bd 2f e7 86 be 8a c9 c6 be 84 2b c7 bd
       -0.119814396 -0.26348254 -0.38825637 -0.09725097
0000b0 4b 80 88 3e 35 a0 4e 3e 7f 48 47 3f 95 91 fe 3e
       0.2666038 0.20178302 0.77844995 0.49720445
0000c0 86 4c 3a 3e 9a 5e 94 3e 81 68 01 3f 29 00 b0 3e
       0.18193254 0.28978425 0.50550085 0.34375122
0000d0 4a ca be 3c 86 96 1c 3f d8 95 80 be 5a 72 b0 be
       0.023289818 0.6116718 -0.25114322 -0.34462243
0000e0 0e 73 aa 3d 6a 24 de 3d b1 6d 12 3f ff 0b af 3e
       0.08322726 0.10846789 0.57198626 0.3418884
0000f0 d0 85 83 3f 2f d9 b0 3f f0 b0 bb 3e 20 a5 8a 3e
       1.0275211 1.3816279 0.3665843 0.27079105
000100 0f 1c c1 3e 5c 04 09 bf 70 94 72 3f 1c ba 5a be
       0.3771672 -0.53522277 0.9475775 -0.21360058
000110 e8 a0 80 be 82 3b 30 3f 79 90 3a be f9 7e 4c 3c
       -0.25122762 0.688408 -0.18219174 0.0124814445
000120 45 2e 9b 3e 07 23 93 be 70 4b b1 be 87 25 5d 3f
       0.30308738 -0.2873766 -0.34627867 0.8638539
000130 69 c0 24 3e 44 d4 97 bd 00 be 92 3f cc d7 93 3f
       0.16089024 -0.07413533 1.1464233 1.1550231
000140 7f 91 2d 3f 44 09 2a be ea 87 4b bd cc bd b0 3d
       0.67800134 -0.16605097 -0.049690165 0.08629951
000150 f8 4a 34 3e 87 af be bd 08 a7 14 3e 46 8b 24 3f
       0.17606723 -0.09310823 0.14516842 0.64275014
000160 35 01 8a 3e 06 a4 a0 3e 33 70 6a 3d bc 02 30 be
       0.26954046 0.3137514 0.057235908 -0.17188543
000170 f0 34 ff bd ac ea 55 3e 3e 97 88 3c 6d 5a 97 3d
       -0.12461269 0.20890301 0.01667368 0.07390294
000180 27 7d 0a 3f 80 1e d4 3e 5a 72 88 3e a1 18 db 3c
       0.5409722 0.4142952 0.26649743 0.026745142
000190 e1 90 4b 3e dc ca b2 3d 51 e1 36 3d 31 0e 81 3e
       0.19879486 0.087300986 0.044648472 0.2520614
0001a0 1b d2 91 bd 98 d9 a4 3d d0 db 81 3e 55 a0 8b 3e
       -0.071201526 0.08049315 0.25363016 0.2727076
0001b0 1f 24 c7 3e 6c db 18 3e ec 80 27 3e 74 2d 75 3e
       0.38894746 0.14927453 0.16357774 0.2394312
0001c0 5c b9 af 3e 4d 6b e1 3d a2 92 07 3f 92 69 e5 3e
       0.34321105 0.11006794 0.5295812 0.44807106
0001d0 3d 00 0a 3f aa 14 db 3e 7c 52 5e 3c 72 17 c2 be
       0.53906614 0.42789203 0.0135694705 -0.37908512
0001e0 9a b2 9e 3e 89 53 85 3e d1 e8 b2 3c 91 5d 9f 3e
       0.30995637 0.26040295 0.021839531 0.31126073
0001f0 db fb a8 3e 4a aa c1 3d 1d a5 09 be 8e 5b 9e 3d
       0.3300465 0.09456308 -0.13441892 0.077323064
000200 4c b3 e4 3d 3a 5a 3a 3e 23 03 42 3e 4b c2 06 bd
       0.11167011 0.18198481 0.18946509 -0.032900136
000210 7d 1c 11 3f 57 f2 11 3f 18 8e fb 3e 0a 62 f5 3d
       0.56684095 0.57010406 0.49131846 0.1198159
000220 32 f3 84 3c bc f3 b7 bc e0 b8 80 3e 43 7a 12 be
       0.016229246 -0.022455089 0.25141048 -0.14304452
000230 87 88 5a 3c 7f 9b c4 3e bf be 8a 3e 9e 3b 5a 3e
       0.013338215 0.38399884 0.27098653 0.21311805
000240 b4 9e 71 3f 71 eb 47 3f 64 6f cd 3e 79 85 91 bf
       0.94382787 0.7809363 0.40124047 -1.1368858
000250 f9 9e 8e 3c 1d 03 1e 3f 24 56 7d bf 89 0c 9f be
       0.017409788 0.617235 -0.98959565 -0.3106425
000260 62 47 ef 3e 02 6c 9c 3f 45 a4 3c 3f e2 e2 55 3e
       0.46734148 1.2220461 0.73688155 0.2088733
000270 fc 87 8a 3f 5f e7 3a 3f e3 53 8f be 3f fb 9f bc
       1.0822749 0.73009294 -0.27993688 -0.019528983
000280 27 d7 44 3f 38 6d 9b 3e 44 3f bc 3f af 48 4f 3f
       0.76890796 0.30356765 1.4706807 0.8097028
000290 1f 3c f9 3c 52 37 6e 3f 76 89 f9 3e 04 1a 85 3e
       0.030424176 0.9305316 0.48737687 0.2599641
0002a0 2b 95 37 be f5 b3 9c 3e 28 e4 c0 3e 4f 96 09 3e
       -0.17927997 0.30606046 0.3767407 0.13436244
0002b0 af 0b c7 3e 43 05 21 3f 45 85 a8 be 2c a3 cc 3d
       0.388761 0.62898654 -0.32914177 0.0999206
0002c0 59 94 00 3f f5 83 81 3e ef f0 e6 bc 2b 83 6d 3e
       0.5022636 0.25295988 -0.028191058 0.23194568
0002d0 24 d1 90 3f c5 2d 72 3f db f7 6b 3e bc 3b 48 3f
       1.1313825 0.9460109 0.23043768 0.7821615
0002e0 1d 12 40 3e 56 37 cd 3e 16 a9 1a be 50 06 eb 3c
       0.1875691 0.4008128 -0.15103564 0.028689533
0002f0 e1 f4 d7 3d 25 b6 ad 3e c0 0c 44 3f d0 b6 25 3f
       0.10544754 0.33928028 0.76581955 0.64732075
000300 54 a3 d8 3d 41 50 39 3e 4e 63 df 3e a1 7c e2 bd
       0.10578027 0.1809702 0.4363045 -0.11058927
000310 d1 ef 62 be 71 47 65 3e 6c f1 ca 3e a3 e4 46 3c
       -0.22161795 0.22390534 0.39637315 0.012139472
000320 37 85 4c bf f6 e6 23 3e 53 f7 f0 be ce 0d ad be
       -0.7989077 0.16006073 -0.47063693 -0.33799595
000330 6c 31 5b 3e 20 75 fe 3e ab 86 25 3d 07 07 b1 3e
       0.21405572 0.49698734 0.040411633 0.34575674
000340 a2 84 c3 3d e3 e5 19 3d ad 4f e2 3e 4d 5f 23 3e
       0.09546782 0.037572753 0.44201413 0.15954323
000350 25 a3 8d be 4a 93 34 3f d2 6e 9a 3e f2 89 9e be
       -0.27663532 0.70537245 0.30162674 -0.3096462
000360 76 f3 48 bf 52 8b 60 3f 20 c3 95 3f b0 69 84 bf
       -0.7849649 0.87712586 1.1700172 -1.0344753
000370 90 06 14 be f9 c4 27 bf 3a d5 9e bf 2b 2e ae bf
       -0.14455628 -0.6553493 -1.2408822 -1.3607839
000380 a8 12 00 c0 21 f1 f3 3f 34 f7 22 40 12 3d f9 3f
       -2.0011387 1.9057962 2.546338 1.9471762
000390 13 7b 04 3f 1f 12 c1 3f 47 7d e7 3f 18 84 39 3e
       0.51750296 1.5083655 1.8085107 0.18116796
0003a0 f9 19 b6 3f d2 0b 90 3f 1a f2 b4 3f 26 2c ed 3f
       1.4226676 1.1253607 1.4136384 1.8529098
0003b0 3f 73 cf 3f 2b 20 e8 3d b3 75 9a 3f ce 07 be 3f
       1.6207045 0.113342606 1.2067169 1.4846132
0003c0 39 1b eb 3e 9d a2 9b 3f 96 58 8d 3f 58 16 13 bf
       0.45919207 1.2159001 1.1042659 -0.5745597
0003d0 31 c6 8f be 82 95 70 be e7 68 ec be 5f 99 d0 be
       -0.28080896 -0.23494533 -0.46173784 -0.40742013
0003e0 98 ef d0 be 3f b5 6b be 6c b5 0c bf 98 65 ec be
       -0.40807796 -0.23018359 -0.5496433 -0.4617126
0003f0 58 a6 4e 3f 8b da e1 3f 8e 02 fe 3f 54 73 6e bc
       0.8072257 1.7644819 1.984453 -0.014553864

layer2.0.bias f4 [8]
000000 b7 a8 73 bd 8f a4 e0 3c 19 09 79 3d dc 95 49 bd
       -0.05948707 0.027422218 0.06079969 -0.049215183
000010 a0 d1 9a bd 83 00 b4 3d eb 8a d5 bd 46 d3 db 3d
       -0.07559514 0.0878916 -0.10426887 0.107336566

layer2.1.weight f4 [8]
000000 8d 01 28 3f 9e 37 83 3f a4 9f 49 3f f2 e6 e6 3f
       0.65627366 1.0251348 0.7875922 1.8039229
000010 85 72 7b 3f ec bd 12 40 45 92 80 3f 1e d0 1c 3e
       0.9822162 2.292842 1.0044638 0.15313765

layer2.1.bias f4 [8]
000000 15 16 df be 92 51 b8 be 55 83 06 3f fb 0d 85 3e
       -0.43571535 -0.35999733 0.52544147 0.2598723
000010 6c b7 d5 3e 87 0b 29 bd cf e8 20 bf d9 60 03 be
       0.41741502 -0.04127076 -0.6285524 -0.12829913

layer2.1.running_mean f4 [8]
000000 a2 51 15 41 d5 e7 0d 41 21 39 39 41 e1 c0 2f 41
       9.33243 8.8691 11.5764475 10.98459
000010 36 49 58 41 b1 17 38 41 10 61 b4 c1 74 6c 2b c2
       13.517874 11.505784 -22.547394 -42.85591

layer2.1.running_var f4 [8]
000000 3f d4 1f 43 80 ba 02 43 43 83 56 43 5a bc e5 43
       159.82909 130.72852 214.51274 459.4715
000010 78 7f a8 43 41 6c 53 43 d2 f8 c4 44 2e d3 ee 44
       336.99585 211.42287 1575.7756 1910.5994

layer3.0.weight f4 [16, 8, 3, 3]
000000 35 86 4a bf 99 40 42 bf 6f f9 30 bf 77 fb 86 be
       -0.79111034 -0.7587982 -0.69130605 -0.26363727
000010 5e a9 e0 bd dd bf 4b bf e3 ea 95 bc 04 ee 62 3d
       -0.10969804 -0.79589635 -0.01830048 0.05540277
000020 35 ca d2 bd 2f c4 f3 3d e9 be 02 3d 69 1d 16 bd
       -0.10292474 0.119026534 0.031920347 -0.03664914
000030 a7 06 0e be 92 35 04 bb 98 42 2a bc 46 29 af bd
       -0.13869725 -0.0020173532 -0.010391854 -0.08552794
000040 6b 2f e0 3d 84 01 c6 3a 27 48 1b 3e d8 6e 53 be
       0.10946544 0.0015106653 0.15164243 -0.20647752
000050 99 88 5c bc 96 57 e8 3e ea c7 93 3e 66 78 88 3c
       -0.013460302 0.45379323 0.2886346 0.016658973
000060 84 57 16 bf 5a 4a e3 3e 32 4e 71 3d 41 71 23 3f
       -0.5872729 0.44392663 0.058912463 0.63844687
000070 ba 7d 92 3e db 13 4c 3e 13 f4 39 3f 00 fa 39 3f
       0.28611547 0.1992945 0.7263805 0.72647095
000080 1e 1d eb 3e 39 4f cb be 70 d3 a6 3d 4f b7 0a be
       0.45920652 -0.3970888 0.08145797 -0.13546489
000090 50 24 df 3e f2 ae 28 3d 47 75 6f bd ee 4f 6c 3e
       0.43582392 0.041182466 -0.058461454 0.23077366
0000a0 74 cd 94 3e e7 c1 55 3d 6d 5e 84 bd c9 2f c7 3d
       0.29062998 0.052186873 -0.06463323 0.09725911
0000b0 d2 f0 25 be 74 79 49 3f 59 65 ba 3e c2 e3 fa 3e
       -0.16205147 0.7870095 0.36405447 0.4900189
0000c0 33 ae 9f 3e 47 ae e7 3e 28 9b 2b 3f e6 9a 95 3e
       0.3118759 0.4525015 0.67033625 0.2921974
0000d0 c9 aa 8c 3e 40 32 1c 3d fb 54 d4 3d 4f e7 41 3f
       0.2747405 0.03813386 0.10367771 0.75743574
0000e0 8e 9f 1e 3f c2 9e 86 bf d6 6f d6 bf 86 11 d7 be
       0.6196221 -1.0517199 -1.675288 -0.42005557
0000f0 98 0b c0 be 25 44 27 bf 68 a3 88 be 41 42 18 3f
       -0.37508845 -0.65338355 -0.2668717 0.59476095
000100 31 56 6f 3e 8b 96 33 3f 4a 6d 35 bd 79 7f 61 3f
       0.23372723 0.70151585 -0.04429368 0.8808513
000110 20 cc 90 3e 1f 78 97 be 62 3d 17 bf 2d d2 18 bf
       0.28280735 -0.29583833 -0.5907804 -0.596957
000120 e0 5e 7b be f8 da f6 bc 3c f1 85 3e f0 41 43 bd
       -0.2454791 -0.03013371 0.2616061 -0.047670305
000130 e4 08 9a be 61 95 c6 bd e3 8e 56 bd be 37 d8 3b
       -0.30084908 -0.096964605 -0.05238236 0.006598442
000140 75 17 7e be 07 19 c4 bd 28 07 08 be d8 a3 b3 bd
       -0.24813636 -0.09575086 -0.1328398 -0.08771485
000150 8a ff cb 3d 56 b0 97 be 85 ff 57 be 6d fa 22 3e
       0.099608496 -0.2962672 -0.21093567 0.15915842
000160 c9 ab 0b be cb ed 32 3d bb 61 dd 3e 71 20 5c be
       -0.1363975 0.04368381 0.43238625 -0.2149675
000170 2e 57 2a 3f 98 12 a7 3e 71 9b 19 be d2 8f 29 3f
       0.66539276 0.32631373 -0.15000702 0.6623508
000180 4d 4a 56 3e dd 85 93 3e fb b6 fe 3e b8 01 20 3f
       0.20926781 0.28813067 0.49748978 0.6250262
000190 dd be 0e 3f 97 8f 18 be 0d 44 73 3f 8a 6a 81 bc
       0.55759984 -0.14898525 0.9502571 -0.015797872
0001a0 5c dd 0b bf b7 4e d7 3e ec e5 d6 3e b4 36 54 bd
       -0.5463464 0.42052242 0.4197229 -0.05180998
0001b0 47 8b 0e 3f fb b3 08 3f cf 3d 81 3e 2e b6 c9 3e
       0.5568127 0.5339963 0.2524247 0.39396805
0001c0 46 91 2a 3f d4 8c b8 3e 4a f5 e2 3e 23 97 1f 3f
       0.6662792 0.36044943 0.44327766 0.6233999
0001d0 06 3e 60 3e 69 a3 90 be 2e 54 28 3f 80 33 fa 3e
       0.2189866 -0.28249672 0.6575345 0.48867416
0001e0 93 5c 8e 3d a8 8f 19 3f f3 3b a4 be b0 ab 10 3e
       0.06951251 0.5998483 -0.32076988 0.14127994
0001f0 1c dc 39 3d 28 56 05 bf 45 22 18 3e 49 b9 46 3f
       0.04537593 -0.5208459 0.14856823 0.7762647
000200 e4 d5 4f bf f2 df ca 3c 01 35 18 3c f4 eb 92 be
       -0.81185746 0.024764989 0.009289981 -0.28695643
000210 5c 42 58 3f f3 28 f0 3d 75 0f 94 3e 1d 17 8c 3e
       0.84476256 0.117265604 0.28918043 0.27361384
000220 2d 1f 8d 3d 0e 71 81 3d a5 6b cb bd b0 71 7a 3d
       0.06890712 0.063203916 -0.09932641 0.061143577
000230 b9 0c 52 be 06 ef b9 be a3 64 40 be 75 f1 14 3d
       -0.20512666 -0.36315173 -0.1878839 0.036363084
000240 7c fa cc 3d 64 50 72 be 8c 00 95 be 25 9a 29 3e
       0.100087136 -0.23663479 -0.2910198 0.16562708
000250 46 f8 83 bd 68 29 3c be d6 22 20 3e 5e ff a7 3e
       -0.06443839 -0.1837517 0.15638289 0.32812017
000260 85 b5 5b bd 0b 2b ab bc cb 09 67 bd 3f 33 c3 bd
       -0.053639907 -0.020894548 -0.056405824 -0.09531259
000270 bb 07 99 bc ac ca 54 3e 9f 6d 49 3e 70 f4 8a be
       -0.018680444 0.20780438 0.19670723 -0.27139616
000280 f8 ee f3 3d 52 eb 99 3e 8b af c7 bd 88 c3 66 be
       0.11910814 0.30062348 -0.09750279 -0.22535527
000290 9c ee 5a be 68 25 80 3e 9c b4 35 bb 3b d8 ff bd
       -0.21380085 0.2502854 -0.002772606 -0.124924146
0002a0 02 56 ca 3e cb d4 cb 3c fa 60 fc 3b ef c9 da be
       0.39518744 0.024881741 0.00770199 -0.42732188
0002b0 33 20 9e be 8c 3e 97 3d 90 20 24 3d 18 a4 87 be
       -0.3088394 0.07384977 0.040070117 -0.2649238
0002c0 48 f2 f1 3d 8e 63 4b 3e c0 7f 23 3d 12 99 e8 3e
       0.118137896 0.19862196 0.039916754 0.45429283
0002d0 5d b7 81 be 26 45 7a be 1f 45 37 bd 5c 9f ce 3e
       -0.25335208 -0.2444044 -0.044743653 0.40355957
0002e0 41 56 ae 3e 17 d0 cd 3e cf f4 58 3e 31 bc a5 bd
       0.34050182 0.40197822 0.21187137 -0.08092535
0002f0 73 3a 35 bd b7 62 bd be 17 17 1a be 2f 04 9d be
       -0.044245195 -0.36989376 -0.1504787 -0.30667254
000300 72 73 8e 3e c3 1a 6c 3e bf 45 1b be 87 71 15 3f
       0.27822453 0.23057084 -0.15163325 0.58376354
000310 c0 21 26 3f ed 38 a5 3e 4f 6f 5c bd 72 a0 00 3f
       0.6489525 0.32269993 -0.05381709 0.5024482
000320 8c ee b4 bc 22 b9 a5 bd 2a 5c f6 3e 74 df 85 3e
       -0.022086404 -0.08091952 0.4811719 0.26147044
000330 9a aa c1 3d ac f9 d9 3e 6b 1e 03 3e d0 7a 1e bc
       0.09456368 0.42573297 0.12804572 -0.0096728355
000340 8b e8 54 be 08 76 4d be aa 18 85 3e f6 6d cf 3d
       -0.20791833 -0.20064557 0.2599538 0.10128395
000350 32 b9 fb 3c 98 d6 ba 3d ec 96 88 bd 0d 6e 08 be
       0.030727956 0.09122962 -0.06669411 -0.13323231
000360 8d 93 e0 3e 77 98 c3 bd 2a 9c 24 3e fc ed 7a bd
       0.43862572 -0.09550565 0.16075197 -0.061262116
000370 7b 04 51 3e ae 50 f4 3e 47 16 44 bd 83 fb d6 3d
       0.20411865 0.47717804 -0.047872808 0.10497191
000380 7f 1b 3e 3f 80 29 d5 bd 80 3f ab 3d b1 21 f9 3d
       0.74260706 -0.10408306 0.08361721 0.12164629
000390 20 a0 5f be 66 31 13 be 34 7e fb 3d d7 f0 1d bd
       -0.21838427 -0.14374313 0.12279931 -0.03855976
0003a0 fc 95 8e bd f2 11 5a 3e 21 a2 03 3f 1c 80 d9 3e
       -0.06962201 0.21295908 0.51419264 0.42480552
0003b0 62 92 1c bf ce 14 69 3e 56 10 24 3f ac 4d 21 be
       -0.6116086 0.22761843 0.64087427 -0.15752286
0003c0 de 51 27 be 35 34 e5 3e 9a 3e d4 bd e3 1a 65 3f
       -0.16339824 0.44766393 -0.10363503 0.8949415
0003d0 5c 83 23 3e 9c d7 1a be 3f 54 52 3f ff a2 59 3d
       0.15968078 -0.15121311 0.821598 0.05313396
0003e0 02 38 c3 be 9b dc 5c 3f 16 e8 aa 3e 14 37 7f bf
       -0.38128668 0.8627412 0.33380193 -0.9969342
0003f0 3e e4 43 3d e9 1e 8f bc 46 51 0b bf 03 df 7a 3d
       0.04782509 -0.017470794 -0.5442089 0.061247837

layer3.0.bias f4 [16]
000000 16 fe 90 bd e6 77 c4 3d bf 25 1c bd 1f da f4 3b
       -0.07079713 0.09593181 -0.038121935 0.007472291
000010 aa 07 6e 3d 5e 82 c3 bd e6 3d ae 3d 4d eb fd bc
       0.058112778 -0.0954635 0.085079 -0.03099599
000020 b2 28 e1 3d 76 12 20 3d ce 87 2d 3d a4 05 4e bd
       0.1099409 0.039080106 0.04236584 -0.050298348
000030 c5 f9 14 bd 56 9a a7 bc b2 50 b5 3d 82 6e e0 bd
       -0.03637101 -0.020459335 0.08853282 -0.10958578

layer3.1.weight f4 [16]
000000 4b 45 fe 3e dc bf 61 3f cd 34 f3 3e ba d2 8c 3f
       0.4966224 0.8818338 0.4750122 1.1001809
000010 2a c9 75 3f 75 89 03 40 f7 9f 18 3f 19 bf ca 3f
       0.96010077 2.0552647 0.59619087 1.5839568
000020 0d ff c1 3e 66 0c 76 3f d5 35 4d 3f 92 d4 96 3f
       0.378899 0.9611267 0.80160266 1.1783621
000030 dd d7 bf 3f 0e 03 61 3f ee 4c 9a 3f d1 07 99 3f
       1.4987751 0.87895286 1.2054727 1.195551

layer3.1.bias f4 [16]
000000 61 5c 72 bd 5a 80 77 3e 57 6e 91 be d0 30 df bd
       -0.05917013 0.24170056 -0.28404495 -0.10897982
000010 4c 4e d2 3e 13 52 97 be ef 05 ab bd 95 7e a7 3e
       0.4107536 -0.29554805 -0.08350741 0.32713762
000020 4c 2b 93 be 9d a1 76 3a c7 3e 5f bd 6c dc 63 3e
       -0.2874397 0.00094082375 -0.05450323 0.22252053
000030 73 2a 71 be 41 22 3c 3d 3a d2 10 3f 0c d0 05 3f
       -0.2355135 0.045931105 0.5657078 0.5227058

layer3.1.running_mean f4 [16]
000000 5f 36 99 40 5a ec a9 40 2d 06 95 3f cb 81 22 40
       4.787887 5.3101015 1.164251 2.539172
000010 38 0b b2 3e 7e a2 07 bf 25 32 c9 c0 f1 ca ee 3f
       0.34774184 -0.5298232 -6.287371 1.8655683
000020 21 65 6e c0 0a 27 21 c0 59 3d f1 c0 01 0c ce 40
       -3.7249224 -2.5180078 -7.5387387 6.4389653
000030 6e c7 8d bf 7a 55 bf bf 6c 36 37 41 34 e7 78 40
       -1.1076486 -1.494796 11.450787 3.8891115

layer3.1.running_var f4 [16]
000000 bf 14 33 42 0a 9c 3c 42 9e e6 7f 41 c2 88 dc 41
       44.77026 47.15238 15.993803 27.566776
000010 83 0e 9d 40 d7 17 09 41 a5 67 3b 42 84 4a b5 41
       4.9080215 8.56832 46.851215 22.661385
000020 83 bb 1b 42 8b 78 29 41 fb 6c 8a 42 20 1b e2 42
       38.933117 10.591929 69.21285 113.05298
000030 5b 20 29 42 be cd 0c 42 0c da 44 43 54 9f 74 42
       42.281597 35.20092 196.85175 61.155594

layer4.0.weight f4 [16, 16, 3, 3]
000000 35 ac 19 3e fc 95 ad 3e ff ae ac 3e 20 e6 ef 3d
       0.15007098 0.33903491 0.3372726 0.11713815
000010 6d 48 47 3e 47 aa df 3e 19 b1 b8 3e a2 fc 86 3e
       0.19461222 0.436846 0.36072615 0.2636462
000020 f8 c8 51 3f d8 39 b0 3e 1b f6 94 3d 2d 55 b8 3e
       0.8194728 0.3441913 0.072735034 0.36002484
000030 e3 10 27 be d4 f2 b9 3e 7e 29 c4 3e 03 d1 c4 bd
       -0.16315036 0.36318076 0.38312906 -0.09610178
000040 d3 86 43 3e 9d 01 de 3e 01 ce ff bd 1d 87 fa bc
       0.190944 0.43360606 -0.12490464 -0.030582005
000050 5d 52 a1 bd cd 0b 9f be d3 78 83 bd 33 39 60 bd
       -0.07877038 -0.3106369 -0.0641953 -0.05474205
000060 75 77 2e 3a 0b 2a 30 3e d8 c6 a9 3e 44 13 6f 3e
       0.0006655374 0.17203538 0.33159518 0.23347193
000070 01 d4 bf 3e ef 56 f5 3e 70 ea 69 3e e9 58 76 3e
       0.37466434 0.47917888 0.22843337 0.24057354
000080 01 e1 e1 3e 4d 10 80 3e fa f0 9e 3e dc a2 5b 3f
       0.44116977 0.25012437 0.31043226 0.8579538
000090 10 22 da bc b2 c0 01 3d fb 79 f2 bd c5 70 b7 bd
       -0.02662757 0.03167791 -0.11839672 -0.08957056
0000a0 11 33 c4 3a e2 f6 44 be 8c 0d de 3d 6e 2d 0a 3e
       0.0014968832 -0.19234803 0.108424276 0.13493893
0000b0 99 d3 51 be aa a6 32 be 11 bc af be a4 17 27 be
       -0.20490874 -0.1744639 -0.3432317 -0.16317612
0000c0 d0 6e 8a be 33 a1 1e be 25 49 2f be 71 9b f7 3b
       -0.27037668 -0.1549118 -0.17117746 0.007556372
0000d0 7a 98 26 bd 4a 5c ef 3c 3f d2 54 bc 38 b9 30 3e
       -0.040672757 0.029218812 -0.01298958 0.17258155
0000e0 90 7b bb 3e b0 a8 03 be 0f ff 0e 3e ad bd 94 3e
       0.36617708 -0.12857318 0.13964485 0.2905096
0000f0 6a 31 41 be 43 73 8f 3e 91 96 23 3e 2c b5 74 3e
       -0.18866506 0.28017625 0.15975405 0.23897237
000100 40 93 2f 3e 56 96 1b 3e eb 8b 07 bf bc 78 ca bd
       0.17146015 0.15194067 -0.5294787 -0.098863095
000110 94 33 7b be a4 d4 b7 3e 49 f3 fc 3e 22 f9 c0 3e
       -0.24531394 0.3590442 0.49404362 0.37690073
000120 43 59 a6 3d 91 39 52 3e f1 eb da 3e c3 6b 44 3d
       0.08122494 0.20529772 0.42758134 0.047954332
000130 d0 26 25 3e d5 9d 90 3e 1e f1 cc 3e c7 a2 16 3f
       0.16128087 0.28245416 0.40027708 0.5884213
000140 2c 93 a5 3e 68 ec 11 3d 4e 22 e8 3e 31 26 28 be
       0.32338846 0.035625845 0.45338672 -0.16420819
000150 c4 a9 81 3e 1b 10 a0 3e ad cd 88 bb aa 39 0a 3d
       0.25324833 0.31262287 -0.004174909 0.0337464
000160 12 92 9d 3d b7 02 28 be 1e e1 b3 3e 05 37 89 bd
       0.07693876 -0.16407286 0.35132688 -0.06699947
000170 20 83 69 3e 95 72 38 3e 81 12 17 bd 72 47 fe 3e
       0.22803926 0.1801246 -0.03688288 0.49663883
000180 cc 41 9f 3e 6f 45 80 3e d4 5c 91 3e ab d3 03 3f
       0.31104887 0.25052974 0.28391135 0.51494855
000190 b6 42 67 3e ff f7 6d bd f7 54 c5 bd cc 4c 33 3d
       0.22584042 -0.058097836 -0.096353464 0.04377441
0001a0 67 ff 6d bd 4e 09 e1 3e 7c 9f 52 3e 16 b0 af 3e
       -0.0581049 0.4395241 0.20568651 0.3431403
0001b0 62 47 b6 3e 4d 85 8c 3e e3 0b f1 3e d9 98 e1 3c
       0.35601336 0.2744545 0.4707938 0.027538704
0001c0 38 d7 ce 3e c2 1c d1 3e 3c 60 b0 3d a3 f1 10 3f
       0.40398574 0.40842253 0.08612105 0.5661871
0001d0 c6 49 12 3e 27 4d 02 be 44 12 09 3e 23 f9 6c be
       0.14285955 -0.12724744 0.13385874 -0.23141913
0001e0 e6 8c 97 be 72 19 8d 3e d5 83 40 be c5 82 90 3e
       -0.29599684 0.27558476 -0.1880029 0.2822477
0001f0 a1 59 81 3e 24 9f d4 3e bd 13 c8 3c b7 93 0e 3e
       0.25263694 0.41527665 0.024423474 0.13923536
000200 c1 0d 7d 3d e6 85 a7 3d 28 05 79 3e 8e 0e 1c 3e
       0.061780695 0.08179836 0.24318373 0.15239927
000210 83 57 85 3e b2 a8 e3 3e 0c 8c 22 3f 54 ce d3 3d
       0.2604333 0.44464642 0.63494945 0.10342088
000220 1b c4 04 3f 96 1f 4f 3a aa 38 77 bd 04 aa f5 3e
       0.51861733 0.000790113 -0.060356773 0.47981274
000230 e6 8c d5 bc fb 46 17 3f 75 91 7f 3f b0 ef 4c 3f
       -0.026068162 0.5909268 0.99831325 0.80053234
000240 32 99 84 3e ab 8d 10 3f 07 fa ff 3e 65 9e 9c 3e
       0.2589813 0.5646617 0.49995443 0.30589595
000250 12 c4 1a 3e 87 04 f4 3d 7b 5d ee 3e 90 ac e3 3e
       0.15113857 0.11914926 0.46555695 0.44467592
000260 7c c7 2c be 45 34 cc 3e 6a a6 71 be d0 fd c2 3e
       -0.16872972 0.39883628 -0.23598638 0.3808427
000270 a8 ff 1c bd 1c 0a e7 3d 00 a7 2d 3f 99 6a 8c 3e
       -0.03832975 0.11281225 0.67832947 0.27425078
000280 58 8b 04 3d 93 3c ae be 8a 05 bf be 14 c0 a7 be
       0.03235945 -0.3403059 -0.37308913 -0.3276373
000290 49 c2 29 3d 9e 0e 3f 3d c4 78 5e be 9e b1 21 bd
       0.04144505 0.0466448 -0.21725756 -0.03947603
0002a0 b8 fd 75 3e b4 ba 02 3f 7e 53 9a 3e 29 79 85 3e
       0.24022567 0.51066136 0.30141824 0.26069
0002b0 69 3a 14 3f 6e 55 03 3f e6 1f 00 be 86 40 12 bd
       0.57901627 0.5130223 -0.12512168 -0.035706066
0002c0 89 f3 db 3d 93 aa 4b 3e 3f 50 2a 3d fa ed 8c 3d
       0.1073981 0.19889288 0.041580435 0.06881328
0002d0 87 16 00 3e 71 de 68 3d ac 14 30 3e ec 22 78 bc
       0.12508593 0.05685276 0.17195386 -0.015145045
0002e0 a3 49 8b bd 88 7b 47 3d e2 24 3c be b3 c3 ab bd
       -0.068011545 0.048701793 -0.18373445 -0.08386936
0002f0 cd 2a 0e be 89 e4 df be e1 c3 2e bf 7a 96 c8 ba
       -0.13883515 -0.43729046 -0.6826764 -0.0015303635
000300 a7 72 65 be c9 7c 87 be 19 26 c1 3d 36 8d 89 bd
       -0.22407018 -0.2646239 0.09431095 -0.06716387
000310 4d 2b c2 3d 54 f6 95 3e 73 41 c6 3e 72 5f b4 3d
       0.09480915 0.29289496 0.3872181 0.08807267
000320 b4 f3 48 3e bc fe 39 3e 50 60 ab 3e 98 cc a2 3e
       0.19624215 0.1816358 0.33471918 0.31796718
000330 95 11 90 be b4 5a 40 3e 2d 80 48 be 58 32 25 3e
       -0.28138414 0.187846 -0.19580145 0.16132486
000340 f5 70 52 3e 7b a5 35 3f 82 b3 08 bf b2 8a b2 3e
       0.20550902 0.7095563 -0.5339891 0.3487144
000350 9a 90 11 3f 91 9e 14 3e 0f 63 62 3e 9a dc 21 3e
       0.5686127 0.14513613 0.221081 0.15806809
000360 50 d1 90 3e a0 9e db 3d af 40 c2 be 3b f7 bb 3d
       0.28284693 0.10723615 -0.37939975 0.09178015
000370 48 8c 80 be cb ee 93 be 2d 3b 57 be 98 be a7 bd
       -0.25107026 -0.28893122 -0.21018668 -0.0819065
000380 3d bc d6 3d 3d 1e 91 3e 83 f8 a9 3e c3 3c 45 be
       0.10485122 0.28343382 0.33197412 -0.1926146
000390 bc d0 6f be 00 f3 8b bc 2e 0c 36 be 7b 88 b8 be
       -0.2341947 -0.017083645 -0.17778084 -0.36041626
0003a0 95 39 d7 be b4 6c be 3d 82 70 52 3d 5d c9 63 3e
       -0.4203612 0.09298077 0.051376827 0.22244783
0003b0 dc 15 ff be bc b6 4f be 72 da 88 be 4f 90 12 be
       -0.49821365 -0.20284551 -0.2672916 -0.14312862
0003c0 25 89 73 be fa 90 be 3e bb ab 22 3e a8 f7 eb bd
       -0.23782785 0.37219983 0.15885822 -0.11521846
0003d0 3e 11 96 bc 9a d9 5e 3f 4f 3a 32 3e 37 31 82 3e
       -0.018318769 0.87050784 0.17405055 0.25428173
0003e0 64 d0 4e 3e 43 42 0c 3f 0b 88 50 3f 71 0b 5a 3e
       0.20196682 0.5478861 0.81457585 0.21293427
0003f0 e3 52 b7 3e 90 da 53 3d 4a bc 6e 3e ee e6 cd be
       0.35805425 0.05172211 0.23314014 -0.40215248

layer4.0.bias f4 [16]
000000 c7 51 02 bc 21 f5 c0 bc c3 6a 44 bd 0a 9b 5f bd
       -0.007954068 -0.023554387 -0.04795338 -0.054591216
000010 21 63 8b 3d 5a 6a 08 bd cb 9a 60 3c ad d5 f5 bc
       0.06806017 -0.03330455 0.0137087805 -0.030009115
000020 94 03 1e bc 92 64 9c 3c e8 64 c0 bc c8 72 9f bd
       -0.009644408 0.019090924 -0.023485616 -0.07785565
000030 82 f2 16 bc 95 d2 50 3c 76 2b 73 bc 38 34 c9 bc
       -0.009213092 0.012745519 -0.014841905 -0.024561033

layer4.1.weight f4 [16]
000000 48 63 5a 3f 6b 34 d4 3e c9 cf a1 3f e0 4c fa 3f
       0.8530774 0.41446242 1.2641536 1.955471
000010 81 e0 b6 3f 2b a5 fe 3f 19 96 9b 3f 61 ad 56 3f
       1.4287263 1.9894155 1.2155181 0.83858305
000020 d2 83 86 3f 29 25 af 3f 26 b4 cf 3f 22 a0 a1 3f
       1.0508978 1.3683215 1.6226852 1.2626994
000030 06 6f 83 3f 95 ef b4 3f e1 d2 58 3f 32 0b c6 3f
       1.0268257 1.4135615 0.84696776 1.5472167

layer4.1.bias f4 [16]
000000 f9 d1 fc be d0 7e 59 3e 48 b9 97 be 0e 84 76 3e
       -0.49378946 0.21239781 -0.29633546 0.24073812
000010 28 06 1d 3f 59 49 e0 be a6 a4 db be 2b 05 67 3e
       0.6133752 -0.4380596 -0.42899054 0.22560565
000020 98 92 a0 be f1 67 0e be 2f 73 dc bd 09 00 76 be
       -0.31361842 -0.13906838 -0.10764157 -0.24023451
000030 78 54 ec be 59 dd b6 be 6a eb cf be bf 86 0e 3f
       -0.46158195 -0.3571575 -0.40609294 0.55674356

layer4.1.running_mean f4 [16]
000000 f7 4f 43 41 f0 ef fa 40 22 83 d9 c0 5f 13 89 3f
       12.207023 7.8417892 -6.7972574 1.0709037
000010 56 9d a4 3f d1 c7 81 41 b9 60 ad 40 60 88 15 41
       1.2860515 16.222567 5.418057 9.345795
000020 17 90 23 40 9f 24 9a 40 27 ed 57 3e cb 97 f1 3f
       2.5556695 4.8169703 0.2108656 1.8874449
000030 b5 b9 6a c0 4d 18 39 bf da 03 82 41 a1 27 0d c0
       -3.6675847 -0.72302705 16.25188 -2.2055438

layer4.1.running_var f4 [16]
000000 b0 8e 12 43 47 fb a8 42 32 15 03 42 e5 a1 f5 42
       146.55737 84.490776 32.7707 122.8162
000010 cd e2 d3 42 e7 c4 89 43 3d 8b 36 42 27 bf 7c 42
       105.94297 275.5383 45.635975 63.186672
000020 3a ea 58 42 60 a9 b1 42 ed 8b 4b 42 9f 17 cb 41
       54.228737 88.83081 50.886646 25.386534
000030 27 3d 8d 41 47 fa f7 41 db f5 78 43 8b 2f 7a 41
       17.65486 30.997206 248.96037 15.636607

layer5.0.weight f4 [32, 16, 3, 3]
000000 79 90 d1 3b 13 c7 91 3e ec 82 1e 3e 58 6c 9c 3c
       0.0063953963 0.28472194 0.1547963 0.019094631
000010 12 34 1d 3e 22 f1 10 3e 40 a6 e9 bd ab 3a 74 3e
       0.15351894 0.14154485 -0.11408663 0.23850505
000020 55 ab 47 3e df e5 c0 3b 9e b0 f2 3e ab c3 9c 3e
       0.19498952 0.005886778 0.47400373 0.30618033
000030 09 2a e9 3d 30 73 13 bc d6 8c fc 3c a5 b1 31 3e
       0.11384971 -0.008999631 0.030828875 0.17352922
000040 1e 81 14 3e b1 04 90 3c 9d c1 8e 3e 3c ad 79 3f
       0.1450238 0.017580362 0.2788209 0.9752996
000050 da 0a 45 be b1 87 21 3f a3 fb 17 3e 4b 41 f4 3e
       -0.19242421 0.63097674 0.14842086 0.47706065
000060 0c 20 bd bd 6f 71 93 be a6 24 0a 3f 5d 65 a9 3e
       -0.09234628 -0.2879748 0.5396217 0.33085147
000070 78 62 56 3e ff 11 fb 3d 84 33 95 3e b3 d2 a5 3d
       0.20936 0.12259292 0.29140866 0.08096828
000080 a2 8f b7 3e 27 b0 92 be 7b 79 98 be 0a 6b da 3d
       0.3585177 -0.2865002 -0.29780182 0.10664947
000090 c6 00 02 bd 04 3f b4 3e 8c c1 a6 3e 65 81 77 bd
       -0.03173902 0.35204327 0.3256954 -0.060426135
0000a0 ed ed db 3d 14 69 14 be 73 5e 81 3e e5 42 1e 3d
       0.1073874 -0.14493209 0.25267372 0.038638014
0000b0 63 ed 46 3e 8b ad 2e be 46 04 db bb 4c 56 0b 3f
       0.19426493 -0.17058389 -0.006683859 0.54428554
0000c0 77 7d a6 be 45 78 20 be b1 c8 40 bb 92 26 80 3e
       -0.32517597 -0.15670879 -0.0029416496 0.25029427
0000d0 af 55 2c 3e 23 f8 c4 bd 87 bf 01 be 69 fa eb bd
       0.1682956 -0.09617641 -0.12670718 -0.11522371
0000e0 42 af d1 3d de 1d 78 3e 87 01 ff ba 61 0b a5 bc
       0.10238506 0.24230143 -0.0019455411 -0.020147027
0000f0 4b 59 bc 3e 2e 74 dd 3d 97 33 c0 3d 65 f6 9f bd
       0.36786875 0.10813175 0.0938484 -0.07810668
000100 a4 2d 23 3d d4 f0 41 3e 0d 20 17 bd 02 93 7f 3e
       0.03983845 0.18939525 -0.0368958 0.24958423
000110 b6 7f 1b 3e 2b b5 b3 bd 0e d7 1a bd 77 70 09 be
       0.15185437 -0.087747894 -0.03780275 -0.13421808
000120 68 cd a5 3d 6c 69 7a 3d f0 d3 dd 3e a1 20 e5 3e
       0.08095819 0.061135694 0.43325758 0.44751456
000130 57 c3 6b 3f 0e f0 35 3f a7 bb a2 bd bb 3e d0 3e
       0.9209494 0.7106942 -0.07945948 0.4067286
000140 a1 b8 e5 3e 61 5f ad 3e 6c 69 01 3f a3 83 63 bd
       0.44867423 0.3386183 0.50551486 -0.05554546
000150 26 d7 e3 3d 99 bd 2f 3e 10 63 54 3e 20 2e 46 be
       0.11125021 0.1716217 0.20740914 -0.19353533
000160 36 6b 5f be 3b 7a 82 be a5 4f 02 3f 9c d0 4b bc
       -0.21818241 -0.2548388 0.5090278 -0.012439873
000170 ee 1e 2f 3e f3 dd cb 3d b3 21 98 3e 57 2c 07 3e
       0.17101642 0.09954443 0.2971321 0.13200508
000180 6c 2d 86 3e d0 5c 83 3e 02 e5 0c 3e 02 0a 6c be
       0.2620653 0.25656748 0.13759235 -0.23050693
000190 8a c1 c6 bd af de 25 be 5c 57 aa bd 61 2c 45 be
       -0.097048834 -0.16198228 -0.08317444 -0.1925521
0001a0 f8 51 35 be 33 56 51 bc 42 7d 36 bd ad 73 5a 3e
       -0.1770705 -0.012776899 -0.04455305 0.2133319
0001b0 a2 84 55 3e 81 d5 a4 3d 68 a3 4a 3c 46 96 68 3e
       0.20851377 0.08048535 0.012368061 0.22713575
0001c0 d8 df 8a 3e a8 e3 50 3d 9a bd 61 ba bf 61 81 be
       0.27123904 0.05099836 -0.00086113217 -0.25269887
0001d0 32 92 89 3e e3 6e 36 3c fc 7c a2 bd bb c3 5f be
       0.2686935 0.011134836 -0.07933995 -0.21852009
0001e0 95 9a 77 3c e5 a5 c2 bd a6 14 24 3d e6 6d 2c 3d
       0.015112539 -0.09504298 0.040058754 0.042096995
0001f0 6c 88 e5 3d a7 20 cb 3d 79 e6 0c 3f 8f a8 fd 3e
       0.11207661 0.09918337 0.55039173 0.49542663
000200 34 8d d4 3e 2a 75 29 3e 15 ef ca 3d 67 f2 9d 3d
       0.4151398 0.16548601 0.099088825 0.0771225
000210 71 41 c4 be 80 ea d1 bd 7a 9d 00 3e 85 2a a0 3d
       -0.38331178 -0.102498055 0.12560073 0.0782061
000220 ff da 82 be bc bb 34 bd 64 cb bb be b9 77 f6 bd
       -0.25557706 -0.04412435 -0.36678612 -0.12034554
000230 27 40 8f bd dc 44 a2 be ee 9b f2 bc 1c e1 f5 3c
       -0.06994658 -0.3169316 -0.029615369 0.030014567
000240 70 3b af bb 9b ec 85 be e2 af 5b bd f3 75 25 3e
       -0.0053476617 -0.26157078 -0.05363453 0.16158275
000250 72 31 34 3d f7 c1 6b 3d a2 64 92 3e ba c6 97 3e
       0.043992467 0.057558026 0.28592402 0.29643804
000260 0a 5e 1a bc 3f 93 1a 3f 34 a2 da 3e 8d 5c 6e 3e
       -0.009421835 0.6038093 0.42701876 0.23277493
000270 1e 77 39 3e df d0 56 3d 9f 5c 0a bd 2e 60 33 3e
       0.18111846 0.05244529 -0.033779737 0.17517158
000280 97 b3 96 3d 13 04 6e bd 75 a0 c0 3e 69 80 64 3c
       0.07358473 -0.058109354 0.3762242 0.013946631
000290 db 68 74 bd 8f c4 7e 3e 83 5a a8 3e 6f 83 b4 3d
       -0.05967031 0.24879669 0.32881555 0.088141315
0002a0 f1 0f 76 3e b1 58 0a 3f 61 d8 d7 bd a2 f6 3d 3f
       0.24029519 0.5404158 -0.10539318 0.74204457
0002b0 f1 50 6c 3e 1a be 12 3e f8 f5 09 3f f1 44 27 3f
       0.23077752 0.1433033 0.53890944 0.6533957
0002c0 68 96 09 3f 39 2b 97 3e 2b bc c4 3d 13 91 9e 3e
       0.53745127 0.29525164 0.09606203 0.30970058
0002d0 48 2f 8b 3e 40 71 6a 3e 48 2b 25 3e 2a 61 8a 3e
       0.2718451 0.22894764 0.16129792 0.27027255
0002e0 bc fb 00 3f ce af 02 3f b0 e9 18 be 7f 0a 7a 3e
       0.50384116 0.51049507 -0.14932895 0.24418066
0002f0 e7 97 99 3d cc 12 7f 3e 50 29 49 3e 88 77 00 3e
       0.07499676 0.24909514 0.19644666 0.12545598
000300 c2 d9 c8 3e ae 6a 82 3d b1 63 e9 3e ab 6d 6d 3e
       0.39228636 0.06368004 0.4558387 0.23186366
000310 ff c5 86 3d 66 58 8a 3e 9e 03 f5 bd 15 e0 c9 bd
       0.065807335 0.27020568 -0.119635805 -0.098571934
000320 8a 25 8f bd cc 37 3d 3e d7 26 84 be 3f ba bf bd
       -0.06989582 0.18478316 -0.25810882 -0.093616955
000330 f5 fb 2c 3e 07 8e 83 3d cd c5 6c 3e d3 12 8f 3e
       0.16892989 0.06423574 0.2312233 0.2794405
000340 82 3d 35 3e e7 63 48 3e 84 5b 89 bd b3 bf 0d be
       0.17699245 0.1956936 -0.06706908 -0.13842659
000350 40 94 a2 3c 61 08 41 3d d1 c9 9e bd 07 ba 98 be
       0.019846082 0.04712713 -0.07753337 -0.29829428
000360 42 33 90 3e d3 c0 c0 3d e6 fb 3d 3e 95 f7 ec 3e
       0.28164107 0.09411778 0.18553123 0.4628264
000370 44 a5 21 3d 6e a6 34 3e fe 05 57 3e 5d e6 31 3f
       0.03946425 0.17641613 0.2099838 0.6949213
000380 42 2d b5 3d 3a 1a 91 3e 5b f1 d5 3e 78 b6 0f 3f
       0.08846523 0.28340322 0.41785702 0.561378
000390 79 7e b1 3d e0 92 f1 3d 9b a3 7e 3e 80 dc b7 be
       0.08666701 0.11795592 0.24867098 -0.35910416
0003a0 97 e7 2d be 94 44 3a be fc 19 f2 3e e1 24 07 bd
       -0.16982876 -0.18190223 0.4728545 -0.032994155
0003b0 d2 ea a0 bc bc e6 9d 3e a2 69 ce bd b6 e6 55 be
       -0.019643221 0.308401 -0.100787416 -0.2088879
0003c0 21 0c 14 3c ce 08 2b be 18 3a 79 3d 04 b0 31 3e
       0.009036095 -0.16702577 0.06084642 0.17352301
0003d0 3e 8e b4 3e 5b 29 2b 3e c7 8a 82 bd 0f c2 07 3e
       0.35264772 0.16714995 -0.06374126 0.13257621
0003e0 d6 75 08 bb d8 c0 0f 3e 22 8b d5 bc a8 1b db bd
       -0.0020822189 0.14038408 -0.02606732 -0.106986344
0003f0 f4 2e a3 3e d1 d9 96 3e ec f7 74 3e ce d5 02 bd
       0.3187176 0.29463056 0.239227 -0.03194218

layer5.0.bias f4 [32]
000000 76 c6 09 bd e0 33 b9 3b 24 de 13 bd 86 31 83 bd
       -0.033636533 0.005651936 -0.03610052 -0.0640593
000010 93 71 13 bd be c9 8a bd 21 8c 4f 3c 12 fe 5b 3d
       -0.035996985 -0.067767605 0.012667687 0.053709097
000020 21 bf 9e 3d 07 aa 5f 3d 8a 04 99 bd 82 38 4c bc
       0.07751299 0.05460551 -0.07471569 -0.012464644
000030 ab ac 8a bd 1a 54 62 3c 6a 06 1e 3d 95 d4 01 bd
       -0.06771215 0.013813997 0.038580336 -0.031696875
000040 f0 34 3e 3d e8 c5 2b bd 0e c2 9e bd 6d 5e 98 bd
       0.046437204 -0.041936785 -0.07751857 -0.07439885
000050 81 ba 53 bd 47 56 81 bc b8 93 12 3d 7c 23 2a 3c
       -0.051691536 -0.01578821 0.035785407 0.010384437
000060 41 25 0d bd 8e 77 e3 bc ee 6f c3 bc a5 0f 88 3d
       -0.034459356 -0.027766969 -0.023857083 0.06643609
000070 90 e2 92 bd b2 03 b3 3b b7 1b 74 bd 9b ae 59 bd
       -0.071721196 0.005463087 -0.059596743 -0.053145032

layer5.1.weight f4 [32]
000000 fb 02 20 3f 72 a1 b5 3d b0 61 86 3f f5 55 ea 3f
       0.6250455 0.08868684 1.0498562 1.8307482
000010 38 b0 96 3f eb 02 9f 3f 42 e8 a6 3f 4a bc f3 3e
       1.1772528 1.2422765 1.303963 0.4760459
000020 55 4a 7c 3f a5 63 a4 3f 30 f4 37 3f ca 1d cf 3f
       0.9855092 1.2842909 0.71856976 1.6180966
000030 9f ac 4a 3f d6 6c 39 3e 62 38 4c 3f 3a 27 79 3f
       0.7916965 0.18107924 0.79773533 0.9732548
000040 86 ef 97 3f 4d 45 ca 3f 40 dd 91 3f 9a 05 00 40
       1.1869972 1.5802399 1.1395645 2.000342
000050 8c 44 8b 3f 1f 66 c9 3e 6b da 97 3f eb c9 d4 3f
       1.0880294 0.39335725 1.1863531 1.662412
000060 4f f2 4c 3f 0e db 19 3f c7 4a 55 3f 2a 17 14 3f
       0.80057234 0.60099876 0.83317226 0.57847846
000070 96 63 64 3f ac 5a e0 3f 38 a1 2e 3f 4e e3 5b 3f
       0.89214456 1.7527671 0.6821475 0.85893714

layer5.1.bias f4 [32]
000000 aa 3d d5 bb 05 05 45 3e 18 0d b1 be 8b d5 8f bd
       -0.006507595 0.19240196 -0.34580302 -0.07023152
000010 a1 73 49 be 0e ef 26 3d e7 29 54 3e 2c 5a 9f 3e
       -0.19673015 0.040755324 0.2071911 0.31123483
000020 fd a4 04 bf 2f 78 c2 bd 2a 4a ae 3e 39 57 c7 b9
       -0.5181425 -0.094955795 0.34040958 -0.00038021224
000030 a1 47 00 bf 91 21 3f 3e 61 fa ea be 5e f6 7c bd
       -0.501093 0.18665148 -0.4589415 -0.06175839
000040 af f4 3a bf 9d 73 fc 3e 0d aa f3 3e 2b a3 b5 3d
       -0.7302961 0.49306956 0.47590676 0.088690124
000050 f0 52 64 3e d1 e5 12 3e 1f ac 19 be b0 09 7e 3e
       0.22297263 0.1434548 -0.15007065 0.24808383
000060 8c b5 8a be 2d 20 ad 3e 64 15 de bd fa d2 0d bf
       -0.27091634 0.3381361 -0.10843924 -0.5540005
000070 91 af 22 3f d3 23 49 3e 25 e4 d5 3e a9 ed 1c 3d
       0.63549143 0.19642572 0.41775623 0.038312588

layer5.1.running_mean f4 [32]
000000 3d 69 89 40 86 3b f3 40 58 f9 a5 bf 34 49 65 c0
       4.2940965 7.601016 -1.2966719 -3.582593
000010 59 27 66 c0 c1 b7 8c c0 12 a8 5c c0 2d 9c bf 3f
       -3.5961516 -4.397431 -3.4477582 1.4969536
000020 7e 0b 3e c0 de 21 ca bf cd 01 c8 be c6 aa 4f c0
       -2.9694514 -1.5791585 -0.39063874 -3.2447982
000030 40 e0 5f c0 c6 d1 b8 40 f4 d7 e3 bf 80 60 4a c0
       -3.4980621 5.775607 -1.7800279 -3.16214
000040 39 4f 1f c0 ee 1f 60 c0 3e 96 27 40 34 01 26 c0
       -2.4892104 -3.5019488 2.618545 -2.5938234
000050 e3 50 1f 3f 24 71 9b 40 17 67 53 3e 0d 75 91 c0
       0.622328 4.857561 0.20644794 -4.5455384
000060 1f d9 a2 c0 fd c4 0c 40 53 77 86 c0 ec f0 ca c0
       -5.089004 2.1995232 -4.202066 -6.3419094
000070 17 26 db 40 e5 95 3f c0 1c ee 28 40 ec 57 9a c0
       6.8483996 -2.9935238 2.639533 -4.8232327

layer5.1.running_var f4 [32]
000000 58 2b 3a 42 b0 5d c4 42 21 86 5b 41 09 cc d2 41
       46.542328 98.18298 13.720246 26.349627
000010 5a 6a fe 41 86 49 ed 41 0e dd 28 41 b3 3e f8 41
       31.80193 29.6609 10.553968 31.030615
000020 e9 f5 5e 41 9d 0f f7 41 dc cc c4 41 d8 a0 c4 41
       13.935037 30.882624 24.600029 24.578537
000030 dd d7 03 42 f1 51 51 42 80 5d ad 41 7d b4 71 41
       32.960804 52.33002 21.670654 15.1065645
000040 94 1a f0 41 ca 14 a2 41 8c c0 b8 42 74 40 7d 42
       30.012978 20.26015 92.37607 63.312943
000050 51 78 b6 41 b1 de 16 42 cd 4d 1d 42 54 4c 0f 42
       22.808748 37.717472 39.325977 35.82454
000060 fe ff c8 41 c1 c5 ba 41 50 a6 09 42 9a 48 62 42
       25.124996 23.34656 34.412415 56.5709
000070 e9 3a 00 43 72 d9 59 42 d7 1d 4d 42 5a 74 26 42
       128.23012 54.46235 51.27914 41.613625
